…
    val=dict(
        type='TuSimple',
        img_path=dataset_path,
        data_list='test_gt.txt'
    ),
    test=dict(
        type='TuSimple',
        img_path=dataset_path,
        data_list='test_gt.txt'
    )
)


loss_type = 'cross_entropy'
seg_loss_weight = 1.0


batch_size = 1
workers = 0
num_classes = 6 + 1
ignore_label = 255
epochs = 2
log_interval = 100
eval_ep = 1
save_ep = epochs
log_note = ''

2022-05-05 03:31:55,999 - resa - INFO - Network: 
DataParallel(
  (module): MCnet(
    (model): Sequential(
      (0): Focus(
        (conv): Conv(
          (conv): Conv2d(12, 32, kernel_size=(3, 3), stride=(1, 1), padding=(1, 1), bias=False)
          (bn): BatchNorm2d(32, eps=0.001, momentum=0.03, affine=True, track_running_stats=True)
          (act): Hardswish()
        )
      )
      (1): Conv(
        (conv): Conv2d(32, 64, kernel_size=(3, 3), stride=(2, 2), padding=(1, 1), bias=False)
        (bn): BatchNorm2d(64, eps=0.001, momentum=0.03, affine=True, track_running_stats=True)
        (act): Hardswish()
      )
      (2): BottleneckCSP(
        (cv1): Conv(
          (conv): Conv2d(64, 32, kernel_size=(1, 1), stride=(1, 1), bias=False)
          (bn): BatchNorm2d(32, eps=0.001, momentum=0.03, affine=True, track_running_stats=True)
          (act): Hardswish()
        )
        (cv2): Conv2d(64, 32, kernel_size=(1, 1), stride=(1, 1), bias=False)
        (cv3): Conv2d(32, 32, kernel_size=(1, 1), stride=(1, 1), bias=False)
        (cv4): Conv(
          (conv): Conv2d(64, 64, kernel_size=(1, 1), stride=(1, 1), bias=False)
          (bn): BatchNorm2d(64, eps=0.001, momentum=0.03, affine=True, track_running_stats=True)
          (act): Hardswish()
        )
        (bn): BatchNorm2d(64, eps=0.001, momentum=0.03, affine=True, track_running_stats=True)
        (act): LeakyReLU(negative_slope=0.1, inplace=True)
        (m): Sequential(
          (0): Bottleneck(
            (cv1): Conv(
              (conv): Conv2d(32, 32, kernel_size=(1, 1), stride=(1, 1), bias=False)
              (bn): BatchNorm2d(32, eps=0.001, momentum=0.03, affine=True, track_running_stats=True)
              (act): Hardswish()
            )
            (cv2): Conv(
              (conv): Conv2d(32, 32, kernel_size=(3, 3), stride=(1, 1), padding=(1, 1), bias=False)
              (bn): BatchNorm2d(32, eps=0.001, momentum=0.03, affine=True, track_running_stats=True)
              (act): Hardswish()
            )
          )
        )
      )
      (3): Conv(
        (conv): Conv2d(64, 128, kernel_size=(3, 3), stride=(2, 2), padding=(1, 1), bias=False)
        (bn): BatchNorm2d(128, eps=0.001, momentum=0.03, affine=True, track_running_stats=True)
        (act): Hardswish()
      )
      (4): BottleneckCSP(
        (cv1): Conv(
          (conv): Conv2d(128, 64, kernel_size=(1, 1), stride=(1, 1), bias=False)
          (bn): BatchNorm2d(64, eps=0.001, momentum=0.03, affine=True, track_running_stats=True)
          (act): Hardswish()
        )
        (cv2): Conv2d(128, 64, kernel_size=(1, 1), stride=(1, 1), bias=False)
        (cv3): Conv2d(64, 64, kernel_size=(1, 1), stride=(1, 1), bias=False)
        (cv4): Conv(
          (conv): Conv2d(128, 128, kernel_size=(1, 1), stride=(1, 1), bias=False)
          (bn): BatchNorm2d(128, eps=0.001, momentum=0.03, affine=True, track_running_stats=True)
          (act): Hardswish()
        )
        (bn): BatchNorm2d(128, eps=0.001, momentum=0.03, affine=True, track_running_stats=True)
        (act): LeakyReLU(negative_slope=0.1, inplace=True)
        (m): Sequential(
          (0): Bottleneck(
            (cv1): Conv(
              (conv): Conv2d(64, 64, kernel_size=(1, 1), stride=(1, 1), bias=False)
              (bn): BatchNorm2d(64, eps=0.001, momentum=0.03, affine=True, track_running_stats=True)
              (act): Hardswish()
            )
            (cv2): Conv(
              (conv): Conv2d(64, 64, kernel_size=(3, 3), stride=(1, 1), padding=(1, 1), bias=False)
              (bn): BatchNorm2d(64, eps=0.001, momentum=0.03, affine=True, track_running_stats=True)
              (act): Hardswish()
            )
          )
          (1): Bottleneck(
            (cv1): Conv(
              (conv): Conv2d(64, 64, kernel_size=(1, 1), stride=(1, 1), bias=False)
              (bn): BatchNorm2d(64, eps=0.001, momentum=0.03, affine=True, track_running_stats=True)
              (act): Hardswish()
            )
            (cv2): Conv(
              (conv): Conv2d(64, 64, kernel_size=(3, 3), stride=(1, 1), padding=(1, 1), bias=False)
              (bn): BatchNorm2d(64, eps=0.001, momentum=0.03, affine=True, track_running_stats=True)
              (act): Hardswish()
            )
          )
          (2): Bottleneck(
            (cv1): Conv(
              (conv): Conv2d(64, 64, kernel_size=(1, 1), stride=(1, 1), bias=False)
              (bn): BatchNorm2d(64, eps=0.001, momentum=0.03, affine=True, track_running_stats=True)
              (act): Hardswish()
            )
            (cv2): Conv(
              (conv): Conv2d(64, 64, kernel_size=(3, 3), stride=(1, 1), padding=(1, 1), bias=False)
              (bn): BatchNorm2d(64, eps=0.001, momentum=0.03, affine=True, track_running_stats=True)
              (act): Hardswish()
            )
          )
        )
      )
      (5): Conv(
        (conv): Conv2d(128, 256, kernel_size=(3, 3), stride=(2, 2), padding=(1, 1), bias=False)
        (bn): BatchNorm2d(256, eps=0.001, momentum=0.03, affine=True, track_running_stats=True)
        (act): Hardswish()
      )
      (6): BottleneckCSP(
        (cv1): Conv(
          (conv): Conv2d(256, 128, kernel_size=(1, 1), stride=(1, 1), bias=False)
          (bn): BatchNorm2d(128, eps=0.001, momentum=0.03, affine=True, track_running_stats=True)
          (act): Hardswish()
        )
        (cv2): Conv2d(256, 128, kernel_size=(1, 1), stride=(1, 1), bias=False)
        (cv3): Conv2d(128, 128, kernel_size=(1, 1), stride=(1, 1), bias=False)
        (cv4): Conv(
          (conv): Conv2d(256, 256, kernel_size=(1, 1), stride=(1, 1), bias=False)
          (bn): BatchNorm2d(256, eps=0.001, momentum=0.03, affine=True, track_running_stats=True)
          (act): Hardswish()
        )
        (bn): BatchNorm2d(256, eps=0.001, momentum=0.03, affine=True, track_running_stats=True)
        (act): LeakyReLU(negative_slope=0.1, inplace=True)
        (m): Sequential(
          (0): Bottleneck(
            (cv1): Conv(
              (conv): Conv2d(128, 128, kernel_size=(1, 1), stride=(1, 1), bias=False)
              (bn): BatchNorm2d(128, eps=0.001, momentum=0.03, affine=True, track_running_stats=True)
              (act): Hardswish()
            )
            (cv2): Conv(
              (conv): Conv2d(128, 128, kernel_size=(3, 3), stride=(1, 1), padding=(1, 1), bias=False)
              (bn): BatchNorm2d(128, eps=0.001, momentum=0.03, affine=True, track_running_stats=True)
              (act): Hardswish()
            )
          )
          (1): Bottleneck(
            (cv1): Conv(
              (conv): Conv2d(128, 128, kernel_size=(1, 1), stride=(1, 1), bias=False)
              (bn): BatchNorm2d(128, eps=0.001, momentum=0.03, affine=True, track_running_stats=True)
              (act): Hardswish()
            )
            (cv2): Conv(
              (conv): Conv2d(128, 128, kernel_size=(3, 3), stride=(1, 1), padding=(1, 1), bias=False)
              (bn): BatchNorm2d(128, eps=0.001, momentum=0.03, affine=True, track_running_stats=True)
              (act): Hardswish()
            )
          )
          (2): Bottleneck(
            (cv1): Conv(
              (conv): Conv2d(128, 128, kernel_size=(1, 1), stride=(1, 1), bias=False)
              (bn): BatchNorm2d(128, eps=0.001, momentum=0.03, affine=True, track_running_stats=True)
              (act): Hardswish()
            )
            (cv2): Conv(
              (conv): Conv2d(128, 128, kernel_size=(3, 3), stride=(1, 1), padding=(1, 1), bias=False)
              (bn): BatchNorm2d(128, eps=0.001, momentum=0.03, affine=True, track_running_stats=True)
              (act): Hardswish()
            )
          )
        )
      )
      (7): Conv(
        (conv): Conv2d(256, 512, kernel_size=(3, 3), stride=(2, 2), padding=(1, 1), bias=False)
        (bn): BatchNorm2d(512, eps=0.001, momentum=0.03, affine=True, track_running_stats=True)
        (act): Hardswish()
      )
      (8): SPP(
        (cv1): Conv(
          (conv): Conv2d(512, 256, kernel_size=(1, 1), stride=(1, 1), bias=False)
          (bn): BatchNorm2d(256, eps=0.001, momentum=0.03, affine=True, track_running_stats=True)
          (act): Hardswish()
        )
        (cv2): Conv(
          (conv): Conv2d(1024, 512, kernel_size=(1, 1), stride=(1, 1), bias=False)
          (bn): BatchNorm2d(512, eps=0.001, momentum=0.03, affine=True, track_running_stats=True)
          (act): Hardswish()
        )
        (m): ModuleList(
          (0): MaxPool2d(kernel_size=5, stride=1, padding=2, dilation=1, ceil_mode=False)
          (1): MaxPool2d(kernel_size=9, stride=1, padding=4, dilation=1, ceil_mode=False)
          (2): MaxPool2d(kernel_size=13, stride=1, padding=6, dilation=1, ceil_mode=False)
        )
      )
      (9): BottleneckCSP(
        (cv1): Conv(
          (conv): Conv2d(512, 256, kernel_size=(1, 1), stride=(1, 1), bias=False)
          (bn): BatchNorm2d(256, eps=0.001, momentum=0.03, affine=True, track_running_stats=True)
          (act): Hardswish()
        )
        (cv2): Conv2d(512, 256, kernel_size=(1, 1), stride=(1, 1), bias=False)
        (cv3): Conv2d(256, 256, kernel_size=(1, 1), stride=(1, 1), bias=False)
        (cv4): Conv(
          (conv): Conv2d(512, 512, kernel_size=(1, 1), stride=(1, 1), bias=False)
          (bn): BatchNorm2d(512, eps=0.001, momentum=0.03, affine=True, track_running_stats=True)
          (act): Hardswish()
        )
        (bn): BatchNorm2d(512, eps=0.001, momentum=0.03, affine=True, track_running_stats=True)
        (act): LeakyReLU(negative_slope=0.1, inplace=True)
        (m): Sequential(
          (0): Bottleneck(
            (cv1): Conv(
              (conv): Conv2d(256, 256, kernel_size=(1, 1), stride=(1, 1), bias=False)
              (bn): BatchNorm2d(256, eps=0.001, momentum=0.03, affine=True, track_running_stats=True)
              (act): Hardswish()
            )
            (cv2): Conv(
              (conv): Conv2d(256, 256, kernel_size=(3, 3), stride=(1, 1), padding=(1, 1), bias=False)
              (bn): BatchNorm2d(256, eps=0.001, momentum=0.03, affine=True, track_running_stats=True)
              (act): Hardswish()
            )
          )
        )
      )
      (10): Conv(
        (conv): Conv2d(512, 256, kernel_size=(1, 1), stride=(1, 1), bias=False)
        (bn): BatchNorm2d(256, eps=0.001, momentum=0.03, affine=True, track_running_stats=True)
        (act): Hardswish()
      )
      (11): Upsample(scale_factor=2.0, mode=nearest)
      (12): Concat()
      (13): BottleneckCSP(
        (cv1): Conv(
          (conv): Conv2d(512, 128, kernel_size=(1, 1), stride=(1, 1), bias=False)
          (bn): BatchNorm2d(128, eps=0.001, momentum=0.03, affine=True, track_running_stats=True)
          (act): Hardswish()
        )
        (cv2): Conv2d(512, 128, kernel_size=(1, 1), stride=(1, 1), bias=False)
        (cv3): Conv2d(128, 128, kernel_size=(1, 1), stride=(1, 1), bias=False)
        (cv4): Conv(
          (conv): Conv2d(256, 256, kernel_size=(1, 1), stride=(1, 1), bias=False)
          (bn): BatchNorm2d(256, eps=0.001, momentum=0.03, affine=True, track_running_stats=True)
          (act): Hardswish()
        )
        (bn): BatchNorm2d(256, eps=0.001, momentum=0.03, affine=True, track_running_stats=True)
        (act): LeakyReLU(negative_slope=0.1, inplace=True)
        (m): Sequential(
          (0): Bottleneck(
            (cv1): Conv(
              (conv): Conv2d(128, 128, kernel_size=(1, 1), stride=(1, 1), bias=False)
              (bn): BatchNorm2d(128, eps=0.001, momentum=0.03, affine=True, track_running_stats=True)
              (act): Hardswish()
            )
            (cv2): Conv(
              (conv): Conv2d(128, 128, kernel_size=(3, 3), stride=(1, 1), padding=(1, 1), bias=False)
              (bn): BatchNorm2d(128, eps=0.001, momentum=0.03, affine=True, track_running_stats=True)
              (act): Hardswish()
            )
          )
        )
      )
      (14): Conv(
        (conv): Conv2d(256, 128, kernel_size=(1, 1), stride=(1, 1), bias=False)
        (bn): BatchNorm2d(128, eps=0.001, momentum=0.03, affine=True, track_running_stats=True)
        (act): Hardswish()
      )
      (15): Upsample(scale_factor=2.0, mode=nearest)
      (16): Concat()
      (17): RESANet(
        (resa): RESA(
          (conv_d0): Conv2d(256, 256, kernel_size=(1, 9), stride=(1, 1), padding=(0, 4), bias=False)
          (conv_u0): Conv2d(256, 256, kernel_size=(1, 9), stride=(1, 1), padding=(0, 4), bias=False)
          (conv_r0): Conv2d(256, 256, kernel_size=(9, 1), stride=(1, 1), padding=(4, 0), bias=False)
          (conv_l0): Conv2d(256, 256, kernel_size=(9, 1), stride=(1, 1), padding=(4, 0), bias=False)
          (conv_d1): Conv2d(256, 256, kernel_size=(1, 9), stride=(1, 1), padding=(0, 4), bias=False)
          (conv_u1): Conv2d(256, 256, kernel_size=(1, 9), stride=(1, 1), padding=(0, 4), bias=False)
          (conv_r1): Conv2d(256, 256, kernel_size=(9, 1), stride=(1, 1), padding=(4, 0), bias=False)
          (conv_l1): Conv2d(256, 256, kernel_size=(9, 1), stride=(1, 1), padding=(4, 0), bias=False)
          (conv_d2): Conv2d(256, 256, kernel_size=(1, 9), stride=(1, 1), padding=(0, 4), bias=False)
          (conv_u2): Conv2d(256, 256, kernel_size=(1, 9), stride=(1, 1), padding=(0, 4), bias=False)
          (conv_r2): Conv2d(256, 256, kernel_size=(9, 1), stride=(1, 1), padding=(4, 0), bias=False)
          (conv_l2): Conv2d(256, 256, kernel_size=(9, 1), stride=(1, 1), padding=(4, 0), bias=False)
          (conv_d3): Conv2d(256, 256, kernel_size=(1, 9), stride=(1, 1), padding=(0, 4), bias=False)
          (conv_u3): Conv2d(256, 256, kernel_size=(1, 9), stride=(1, 1), padding=(0, 4), bias=False)
          (conv_r3): Conv2d(256, 256, kernel_size=(9, 1), stride=(1, 1), padding=(4, 0), bias=False)
          (conv_l3): Conv2d(256, 256, kernel_size=(9, 1), stride=(1, 1), padding=(4, 0), bias=False)
          (conv_d4): Conv2d(256, 256, kernel_size=(1, 9), stride=(1, 1), padding=(0, 4), bias=False)
          (conv_u4): Conv2d(256, 256, kernel_size=(1, 9), stride=(1, 1), padding=(0, 4), bias=False)
          (conv_r4): Conv2d(256, 256, kernel_size=(9, 1), stride=(1, 1), padding=(4, 0), bias=False)
          (conv_l4): Conv2d(256, 256, kernel_size=(9, 1), stride=(1, 1), padding=(4, 0), bias=False)
        )
        (decoder): BUSD(
          (layers): ModuleList(
            (0): UpsamplerBlock(
              (conv): ConvTranspose2d(256, 128, kernel_size=(3, 3), stride=(2, 2), padding=(1, 1), output_padding=(1, 1))
              (bn): BatchNorm2d(128, eps=0.001, momentum=0.03, affine=True, track_running_stats=True)
              (follows): ModuleList(
                (0): non_bottleneck_1d(
                  (conv3x1_1): Conv2d(128, 128, kernel_size=(3, 1), stride=(1, 1), padding=(1, 0))
                  (conv1x3_1): Conv2d(128, 128, kernel_size=(1, 3), stride=(1, 1), padding=(0, 1))
                  (bn1): BatchNorm2d(128, eps=0.001, momentum=0.03, affine=True, track_running_stats=True)
                  (conv3x1_2): Conv2d(128, 128, kernel_size=(3, 1), stride=(1, 1), padding=(1, 0))
                  (conv1x3_2): Conv2d(128, 128, kernel_size=(1, 3), stride=(1, 1), padding=(0, 1))
                  (bn2): BatchNorm2d(128, eps=0.001, momentum=0.03, affine=True, track_running_stats=True)
                  (dropout): Dropout2d(p=0, inplace=False)
                )
                (1): non_bottleneck_1d(
                  (conv3x1_1): Conv2d(128, 128, kernel_size=(3, 1), stride=(1, 1), padding=(1, 0))
                  (conv1x3_1): Conv2d(128, 128, kernel_size=(1, 3), stride=(1, 1), padding=(0, 1))
                  (bn1): BatchNorm2d(128, eps=0.001, momentum=0.03, affine=True, track_running_stats=True)
                  (conv3x1_2): Conv2d(128, 128, kernel_size=(3, 1), stride=(1, 1), padding=(1, 0))
                  (conv1x3_2): Conv2d(128, 128, kernel_size=(1, 3), stride=(1, 1), padding=(0, 1))
                  (bn2): BatchNorm2d(128, eps=0.001, momentum=0.03, affine=True, track_running_stats=True)
                  (dropout): Dropout2d(p=0, inplace=False)
                )
              )
              (interpolate_conv): Conv2d(256, 128, kernel_size=(1, 1), stride=(1, 1), bias=False)
              (interpolate_bn): BatchNorm2d(128, eps=0.001, momentum=0.03, affine=True, track_running_stats=True)
            )
            (1): UpsamplerBlock(
              (conv): ConvTranspose2d(128, 64, kernel_size=(3, 3), stride=(2, 2), padding=(1, 1), output_padding=(1, 1))
              (bn): BatchNorm2d(64, eps=0.001, momentum=0.03, affine=True, track_running_stats=True)
              (follows): ModuleList(
                (0): non_bottleneck_1d(
                  (conv3x1_1): Conv2d(64, 64, kernel_size=(3, 1), stride=(1, 1), padding=(1, 0))
                  (conv1x3_1): Conv2d(64, 64, kernel_size=(1, 3), stride=(1, 1), padding=(0, 1))
                  (bn1): BatchNorm2d(64, eps=0.001, momentum=0.03, affine=True, track_running_stats=True)
                  (conv3x1_2): Conv2d(64, 64, kernel_size=(3, 1), stride=(1, 1), padding=(1, 0))
                  (conv1x3_2): Conv2d(64, 64, kernel_size=(1, 3), stride=(1, 1), padding=(0, 1))
                  (bn2): BatchNorm2d(64, eps=0.001, momentum=0.03, affine=True, track_running_stats=True)
                  (dropout): Dropout2d(p=0, inplace=False)
                )
                (1): non_bottleneck_1d(
                  (conv3x1_1): Conv2d(64, 64, kernel_size=(3, 1), stride=(1, 1), padding=(1, 0))
                  (conv1x3_1): Conv2d(64, 64, kernel_size=(1, 3), stride=(1, 1), padding=(0, 1))
                  (bn1): BatchNorm2d(64, eps=0.001, momentum=0.03, affine=True, track_running_stats=True)
                  (conv3x1_2): Conv2d(64, 64, kernel_size=(3, 1), stride=(1, 1), padding=(1, 0))
                  (conv1x3_2): Conv2d(64, 64, kernel_size=(1, 3), stride=(1, 1), padding=(0, 1))
                  (bn2): BatchNorm2d(64, eps=0.001, momentum=0.03, affine=True, track_running_stats=True)
                  (dropout): Dropout2d(p=0, inplace=False)
                )
              )
              (interpolate_conv): Conv2d(128, 64, kernel_size=(1, 1), stride=(1, 1), bias=False)
              (interpolate_bn): BatchNorm2d(64, eps=0.001, momentum=0.03, affine=True, track_running_stats=True)
            )
            (2): UpsamplerBlock(
              (conv): ConvTranspose2d(64, 32, kernel_size=(3, 3), stride=(2, 2), padding=(1, 1), output_padding=(1, 1))
              (bn): BatchNorm2d(32, eps=0.001, momentum=0.03, affine=True, track_running_stats=True)
              (follows): ModuleList(
                (0): non_bottleneck_1d(
                  (conv3x1_1): Conv2d(32, 32, kernel_size=(3, 1), stride=(1, 1), padding=(1, 0))
                  (conv1x3_1): Conv2d(32, 32, kernel_size=(1, 3), stride=(1, 1), padding=(0, 1))
                  (bn1): BatchNorm2d(32, eps=0.001, momentum=0.03, affine=True, track_running_stats=True)
                  (conv3x1_2): Conv2d(32, 32, kernel_size=(3, 1), stride=(1, 1), padding=(1, 0))
                  (conv1x3_2): Conv2d(32, 32, kernel_size=(1, 3), stride=(1, 1), padding=(0, 1))
                  (bn2): BatchNorm2d(32, eps=0.001, momentum=0.03, affine=True, track_running_stats=True)
                  (dropout): Dropout2d(p=0, inplace=False)
                )
                (1): non_bottleneck_1d(
                  (conv3x1_1): Conv2d(32, 32, kernel_size=(3, 1), stride=(1, 1), padding=(1, 0))
                  (conv1x3_1): Conv2d(32, 32, kernel_size=(1, 3), stride=(1, 1), padding=(0, 1))
                  (bn1): BatchNorm2d(32, eps=0.001, momentum=0.03, affine=True, track_running_stats=True)
                  (conv3x1_2): Conv2d(32, 32, kernel_size=(3, 1), stride=(1, 1), padding=(1, 0))
                  (conv1x3_2): Conv2d(32, 32, kernel_size=(1, 3), stride=(1, 1), padding=(0, 1))
                  (bn2): BatchNorm2d(32, eps=0.001, momentum=0.03, affine=True, track_running_stats=True)
                  (dropout): Dropout2d(p=0, inplace=False)
                )
              )
              (interpolate_conv): Conv2d(64, 32, kernel_size=(1, 1), stride=(1, 1), bias=False)
              (interpolate_bn): BatchNorm2d(32, eps=0.001, momentum=0.03, affine=True, track_running_stats=True)
            )
          )
          (output_conv): Conv2d(32, 7, kernel_size=(1, 1), stride=(1, 1), bias=False)
        )
        (heads): ExistHead(
          (dropout): Dropout2d(p=0.1, inplace=False)
          (conv8): Conv2d(256, 7, kernel_size=(1, 1), stride=(1, 1))
          (fc9): Linear(in_features=6720, out_features=128, bias=True)
          (fc10): Linear(in_features=128, out_features=6, bias=True)
        )
      )
    )
  )
)
